YOLOv5 temporarily requires wandb version 0.12.10 or below. Some features may not work as expected.
Overriding model.yaml nc=20 with nc=1
                 from  n    params  module                                  arguments
  0                -1  1       928  models.common.CBRM                      [3, 32]
  1                -1  1      9632  models.common.Shuffle_Block             [32, 128, 2]
  2                -1  3     27456  models.common.Shuffle_Block             [128, 128, 1]
  3                -1  1     52736  models.common.Shuffle_Block             [128, 256, 2]
  4                -1  7    242816  models.common.Shuffle_Block             [256, 256, 1]
  5                -1  1    203776  models.common.Shuffle_Block             [256, 512, 2]
  6                -1  3    404736  models.common.Shuffle_Block             [512, 512, 1]
  7                -1  1    131584  models.common.Conv                      [512, 256, 1, 1]
  8                -1  1         0  torch.nn.modules.upsampling.Upsample    [None, 2, 'nearest']
  9           [-1, 4]  1         0  models.common.Concat                    [1]
 10                -1  1    361984  models.common.C3                        [512, 256, 1, False]
 11                -1  1     33024  models.common.Conv                      [256, 128, 1, 1]
 12                -1  1         0  torch.nn.modules.upsampling.Upsample    [None, 2, 'nearest']
 13           [-1, 2]  1         0  models.common.Concat                    [1]
 14                -1  1     90880  models.common.C3                        [256, 128, 1, False]
 15                -1  1    147712  models.common.Conv                      [128, 128, 3, 2]
 16          [-1, 11]  1         0  models.common.Concat                    [1]
 17                -1  1    296448  models.common.C3                        [256, 256, 1, False]
 18                -1  1    590336  models.common.Conv                      [256, 256, 3, 2]
 19           [-1, 7]  1         0  models.common.Concat                    [1]
 20                -1  1   1182720  models.common.C3                        [512, 512, 1, False]
 21      [14, 17, 20]  1     16182  models.yolo.Detect                      [1, [[10, 13, 16, 30, 33, 23], [30, 61, 62, 45, 59, 119], [116, 90, 156, 198, 373, 326]], [128, 256, 512]]
/home/ymm/anaconda3/envs/pytorch/lib/python3.8/site-packages/torch/nn/functional.py:718: UserWarning: Named tensors and all their associated APIs are an experimental feature and subject to change. Please do not use them for anything important until they are released as stable. (Triggered internally at  /pytorch/c10/core/TensorImpl.h:1156.)
…
