YOLOv5 temporarily requires wandb version 0.12.10 or below. Some features may not work as expected.
                 from  n    params  module                                  arguments
  0                -1  1      3520  models.common.Conv                      [3, 32, 6, 2, 2]
  1                -1  1     18560  models.common.Conv                      [32, 64, 3, 2]
  2                -1  1     18816  models.common.C3                        [64, 64, 1]
  3                -1  1     73984  models.common.Conv                      [64, 128, 3, 2]
  4                -1  2    115712  models.common.C3                        [128, 128, 2]
  5                -1  1    295424  models.common.Conv                      [128, 256, 3, 2]
  6                -1  3    625152  models.common.C3                        [256, 256, 3]
  7                -1  1   1180672  models.common.Conv                      [256, 512, 3, 2]
  8                -1  1   1182720  models.common.C3                        [512, 512, 1]
  9                -1  1    829934  models.common.ACmix                     [512, 512]
 10                -1  1    656896  models.common.SPPF                      [512, 512, 5]
 11                -1  1    131584  models.common.Conv                      [512, 256, 1, 1]
 12                -1  1         0  torch.nn.modules.upsampling.Upsample    [None, 2, 'nearest']
 13           [-1, 6]  1         0  models.common.Concat                    [1]
 14                -1  1    361984  models.common.C3                        [512, 256, 1, False]
 15                -1  1     33024  models.common.Conv                      [256, 128, 1, 1]
 16                -1  1         0  torch.nn.modules.upsampling.Upsample    [None, 2, 'nearest']
 17           [-1, 4]  1         0  models.common.Concat                    [1]
 18                -1  1     90880  models.common.C3                        [256, 128, 1, False]
 19                -1  1      2146  models.common.CBAM                      [128, 128]
 20                -1  1    147712  models.common.Conv                      [128, 128, 3, 2]
 21          [-1, 15]  1         0  models.common.Concat                    [1]
 22                -1  1    296448  models.common.C3                        [256, 256, 1, False]
 23                -1  1      8290  models.common.CBAM                      [256, 256]
 24                -1  1    590336  models.common.Conv                      [256, 256, 3, 2]
 25          [-1, 11]  1         0  models.common.Concat                    [1]
 26                -1  1   1182720  models.common.C3                        [512, 512, 1, False]
 27                -1  1     32866  models.common.CBAM                      [512, 512]
 28      [19, 23, 27]  1    229245  models.yolo.Detect                      [80, [[10, 13, 16, 30, 33, 23], [30, 61, 62, 45, 59, 119], [116, 90, 156, 198, 373, 326]], [128, 256, 512]]
YOLOv5s_acmix summary: 313 layers, 8108625 parameters, 8108625 gradients
Transferred 186/370 items from yolov5s.pt
[34m[1mAMP: [39m[22mchecks passed âœ…
Scaled weight_decay = 0.0005
[34m[1moptimizer:[39m[22m SGD with parameter groups 57 weight (no decay), 75 weight, 64 bias
…
