…
2022-08-03 16:59:51,487 WARNING FileStreamThread:20398 [file_stream.py:request_with_retry():593] requests_with_retry encountered retryable exception: ('Connection aborted.', ConnectionResetError(104, 'Connection reset by peer')). func: <bound method Session.post of <requests.sessions.Session object at 0x7fa5b80c8bb0>>, args: ('https://api.wandb.ai/files/yumingming/YOLOv5_node_large_data/2oh0r9t4/file_stream',), kwargs: {'json': {'files': {'output.log': {'offset': 0, 'content': ['ERROR 2022-08-03T08:59:51.415743 YOLOv5 temporarily requires wandb version 0.12.10 or below. Some features may not work as expected.\n', 'ERROR 2022-08-03T08:59:51.415743                  from  n    params  module                                  arguments\n', 'ERROR 2022-08-03T08:59:51.415743   0                -1  1      3520  models.common.Conv                      [3, 32, 6, 2, 2]\n', 'ERROR 2022-08-03T08:59:51.415743   1                -1  1     18560  models.common.Conv                      [32, 64, 3, 2]\n', 'ERROR 2022-08-03T08:59:51.415743   2                -1  1     18816  models.common.C3                        [64, 64, 1]\n', 'ERROR 2022-08-03T08:59:51.415743   3                -1  1     73984  models.common.Conv                      [64, 128, 3, 2]\n', 'ERROR 2022-08-03T08:59:51.415743   4                -1  2    115712  models.common.C3                        [128, 128, 2]\n', 'ERROR 2022-08-03T08:59:51.415743   5                -1  1    295424  models.common.Conv                      [128, 256, 3, 2]\n', 'ERROR 2022-08-03T08:59:51.415743   6                -1  3    625152  models.common.C3                        [256, 256, 3]\n', 'ERROR 2022-08-03T08:59:51.415743   7                -1  1   1180672  models.common.Conv                      [256, 512, 3, 2]\n', 'ERROR 2022-08-03T08:59:51.415743   8                -1  1   1182720  models.common.C3                        [512, 512, 1]\n', 'ERROR 2022-08-03T08:59:51.415743   9                -1  1    656896  models.common.SPPF                      [512, 512, 5]\n', 'ERROR 2022-08-03T08:59:51.415743  10                -1  1    131584  models.common.Conv                      [512, 256, 1, 1]\n', "ERROR 2022-08-03T08:59:51.415743  11                -1  1         0  torch.nn.modules.upsampling.Upsample    [None, 2, 'nearest']\n", 'ERROR 2022-08-03T08:59:51.415743  12           [-1, 6]  1         0  models.common.Concat                    [1]\n', 'ERROR 2022-08-03T08:59:51.415743  13                -1  1    361984  models.common.C3                        [512, 256, 1, False]\n', 'ERROR 2022-08-03T08:59:51.415743  14                -1  1     33024  models.common.Conv                      [256, 128, 1, 1]\n', "ERROR 2022-08-03T08:59:51.415743  15                -1  1         0  torch.nn.modules.upsampling.Upsample    [None, 2, 'nearest']\n", 'ERROR 2022-08-03T08:59:51.415743  16           [-1, 4]  1         0  models.common.Concat                    [1]\n', 'ERROR 2022-08-03T08:59:51.415743  17                -1  1     90880  models.common.C3                        [256, 128, 1, False]\n', 'ERROR 2022-08-03T08:59:51.415743  18                -1  1    147712  models.common.Conv                      [128, 128, 3, 2]\n', 'ERROR 2022-08-03T08:59:51.415743  19          [-1, 14]  1         0  models.common.Concat                    [1]\n', 'ERROR 2022-08-03T08:59:51.415743  20                -1  1    296448  models.common.C3                        [256, 256, 1, False]\n', 'ERROR 2022-08-03T08:59:51.415743  21                -1  1    590336  models.common.Conv                      [256, 256, 3, 2]\n', 'ERROR 2022-08-03T08:59:51.415743  22          [-1, 10]  1         0  models.common.Concat                    [1]\n', 'ERROR 2022-08-03T08:59:51.415743  23                -1  1   1182720  models.common.C3                        [512, 512, 1, False]\n', 'ERROR 2022-08-03T08:59:51.415743  24      [17, 20, 23]  1     16182  models.yolo.Detect                      [1, [[10, 13, 16, 30, 33, 23], [30, 61, 62, 45, 59, 119], [116, 90, 156, 198, 373, 326]], [128, 256, 512]]\n', 'ERROR 2022-08-03T08:59:51.415743 YOLOv5s_node summary: 270 layers, 7022326 parameters, 7022326 gradients, 15.8 GFLOPs\n', 'ERROR 2022-08-03T08:59:51.415743 Transferred 342/349 items from yolov5s.pt\n']}}, 'dropped': 0}}
…
