YOLOv5 temporarily requires wandb version 0.12.10 or below. Some features may not work as expected.
Overriding model.yaml nc=80 with nc=1
                 from  n    params  module                                  arguments
  0                -1  1      3520  models.common.Conv                      [3, 32, 6, 2, 2]
  1                -1  1     18560  models.common.Conv                      [32, 64, 3, 2]
  2                -1  2     40960  models.common.MobileOne                 [64, 64, 4, 1, False]
  3                -1  1     73984  models.common.Conv                      [64, 128, 3, 2]
  4                -1  2    147456  models.common.MobileOne                 [128, 128, 4, 1, False]
  5                -1  1    295424  models.common.Conv                      [128, 256, 3, 2]
  6                -1  2    557056  models.common.MobileOne                 [256, 256, 4, 1, False]
  7                -1  1   1180672  models.common.Conv                      [256, 512, 3, 2]
  8                -1  2   2162688  models.common.MobileOne                 [512, 512, 4, 1, False]
  9                -1  1    656896  models.common.SPPF                      [512, 512, 5]
 10                -1  1    131584  models.common.Conv                      [512, 256, 1, 1]
 11                -1  1         0  torch.nn.modules.upsampling.Upsample    [None, 2, 'nearest']
 12           [-1, 6]  1         0  models.common.Concat                    [1]
 13                -1  1    361984  models.common.C3                        [512, 256, 1, False]
 14                -1  1     33024  models.common.Conv                      [256, 128, 1, 1]
 15                -1  1         0  torch.nn.modules.upsampling.Upsample    [None, 2, 'nearest']
 16           [-1, 4]  1         0  models.common.Concat                    [1]
 17                -1  1     90880  models.common.C3                        [256, 128, 1, False]
 18                -1  1    147712  models.common.Conv                      [128, 128, 3, 2]
 19          [-1, 14]  1         0  models.common.Concat                    [1]
 20                -1  1    296448  models.common.C3                        [256, 256, 1, False]
 21                -1  1    590336  models.common.Conv                      [256, 256, 3, 2]
 22          [-1, 10]  1         0  models.common.Concat                    [1]
 23                -1  1   1182720  models.common.C3                        [512, 512, 1, False]
 24      [17, 20, 23]  1     16182  models.yolo.Detect                      [1, [[10, 13, 16, 30, 33, 23], [30, 61, 62, 45, 59, 119], [116, 90, 156, 198, 373, 326]], [128, 256, 512]]
Traceback (most recent call last):
  File "train.py", line 666, in <module>
    main(opt)
  File "train.py", line 561, in main
    train(opt.hyp, opt, device, callbacks)
  File "train.py", line 120, in train
…
